checkpoint_ETAIN_3_letter_master.pth (torch, 33062 bytes, 6 tensors)

fc1.weight f4 [64, 43]
-0.30472332 1.9422292 -4.291736 -0.39738628 0.15334138 -0.0022524782 -0.03126833 -0.030881967
-0.098099925 0.22957112 0.0014664546 -0.021911206 -0.03130938 -0.0451021 0.24640135 -0.044924546
0.031205015 0.011181102 0.09391539 -0.10843387 -0.1620213 -0.039162703 -0.056225054 -0.0138376895
0.022636302 0.011311903 0.03994803 0.06940795 -0.07703671 -0.057317045 -0.107704364 0.10999633
-0.070255846 -0.073602274 0.019981448 -0.063614175 0.0003507281 0.024791673 0.08535128 0.056265064
0.11942273 0.08572476 0.44260237 -0.38414657 -4.867675 -3.7964666 -0.02145199 -0.011673032
-0.007494875 -0.0052286615 0.020242304 0.0018852642 -0.05234686 0.032929223 -0.019735295 -0.0142388325
-0.00022831581 0.037650123 -0.21752661 0.002510329 0.024252815 0.004379541 -0.032989625 0.019546825
-0.0016609094 -0.046471905 0.014162832 0.0022575075 -0.005735373 -0.010914816 0.009305197 0.3584391
0.19748844 0.19633184 0.0045870384 -0.06786304 -0.06242881 -0.10925687 -0.030307692 -0.0038088276
-0.094138466 0.08670827 0.13001879 -0.101265006 0.06624958 0.25061536 -0.48367807 0.08976842
0.6803165 0.30512035 0.61409074 0.49118108 0.13796067 -0.07243158 0.49231616 0.5471497
0.5370178 0.31989095 -0.018142262 0.6135132 0.3189532 0.117095396 0.09414947 0.51775134
0.38536853 0.2942724 0.28493553 0.14565322 0.08737422 -0.04043108 -0.08680805 0.38759592
-0.040222906 0.2246176 -0.09379019 0.06591082 -0.35532525 -0.96485454 -0.7246008 -0.48788998
-0.20645514 -0.13934423 -0.15284535 -0.06097226 -0.074068256 0.09604067 0.009243029 -0.012965011
-0.37589446 3.3920164 0.3529603 0.12364753 0.015404332 0.008350938 -0.13490926 0.1442265
0.03156929 -0.032354344 -0.043148935 0.045440238 -0.023465857 0.051677104 -0.01863252 -0.10088525
-0.07330097 -0.12719192 -0.02313565 0.059935115 0.08079915 -0.06946656 0.042321786 0.009942193
-0.06940546 0.004857066 0.038974892 -0.05803025 -0.057402644 -0.0023202994 -0.2759582 -5.1938224
0.14355993 -0.002122437 0.009939294 0.07846219 0.025573798 0.06833396 0.0069335927 0.117544726
0.06310244 0.064301975 0.08649797 -0.21800919 0.069949225 3.6625383 -5.385002 0.021749137
-0.12065119 -0.020825477 0.04917226 0.0199445 0.30522212 -0.21752493 -0.06666041 0.0037736287
0.017171826 -0.08605519 0.22369297 -0.038137604 -0.04867367 0.005487044 -0.01369104 -0.050769538
0.043775417 -0.01887808 -0.03134542 0.0020508769 -0.029697271 0.0043667397 0.042305175 0.0055063404
-0.23036727 0.16876839 -0.2701951 -0.057949908 -0.0461944 -0.032397956 0.0016648318 -0.039098397
-0.013315589 -0.024406495 0.02859434 0.08807468 0.08485113 0.126987 0.2373003 -0.82105774
0.059087794 0.5092946 -0.52963763 -0.63679683 -0.3033173 -0.7170712 -0.76904386 -0.6107482
-0.53894615 0.66505027 0.06693186 -0.23565835 -0.9040507 -1.3554679 -0.8395643 0.32784837
0.111851 0.24205717 -0.43246195 -0.56092334 0.41241446 -0.19437122 -0.48348236 -0.43294248
-0.70652115 -0.13745785 -0.60753477 -0.16005489 -0.17771043 -0.10755448 -0.19402604 -0.088786095
0.06960888 0.055141557 0.032280672 0.05939536 -0.009709349 0.01631529 0.0087496145 0.047491483
00000000: b204 9cbe f79a f83f e755 89c0 3776 cbbe
00000010: 8605 1d3e 509e 13bb 3813 00bd 2efc fcbc
00000020: 9de8 c8bd b114 6b3e 0d36 c03a 217f b3bc
00000030: 443e 00bd fbbc 38bd a350 7c3e cd02 38bd
00000040: a9a1 ff3c f130 373c b656 c03d 9412 debd
00000050: e9e8 25be 1269 20bd 3e4c 66bd 7ab7 62bc
00000060: c46f b93c 8f55 393c 8ca0 233d c125 8e3d
00000070: 6cc5 9dbd 47c5 6abd 1b94 dcbd c245 e13d
00000080: 4ce2 8fbd cabc 96bd 22b0 a33c 2648 82bd
00000090: eee1 b739 e817 cb3c a7cc ae3d 3276 663d
000000a0: e793 f43d 7790 af3d c79c e23e dcae c4be
000000b0: fec3 9bc0 4ff9 72c0 15bc afbc 3f40 3fbc
000000c0: 9297 f5bb 3155 abbb 30d3 a53c f81a f73a
000000d0: a969 56bd cbe0 063d eaab a1bc fe49 69bc
000000e0: 0f68 6fb9 0437 1a3d 4cbf 5ebe 5584 243b
000000f0: d7ad c63c 4182 8f3b 2120 07bd aa20 a03c
00000100: dfb2 d9ba 5359 3ebd 390b 683c b1f2 133b
00000110: ccef bbbb 0ed4 32bc d374 183c 5485 b73e
00000120: 693a 4a3e 370b 493e de4e 963b c7fb 8abd
00000130: 5ab5 7fbd 11c2 dfbd d647 f8bc 869d 79bb
00000140: abcb c0bd 1b94 b13d a523 053e 0764 cfbd
00000150: dcad 873d a850 803e a7a4 f7be 81d8 b73d
00000160: 3929 2e3f bc38 9c3e 0d35 1d3f 167c fb3e
00000170: 9045 0d3e 0257 94bd dd10 fc3e 0112 0c3f
00000180: 007a 093f bfc8 a33e 159f 94bc 330f 1d3f
00000190: d54d a33e b6cf ef3d 70d1 c03d 5a8b 043f
000001a0: 064f c53e dfaa 963e 12e3 913e 1e26 153e
000001b0: 41f1 b23d 0f9b 25bd 6bc8 b1bd f972 c63e
000001c0: c6c0 24bd 2802 663e 1215 c0bd 41fc 863d
000001d0: 31ed b5be b500 77bf 707f 39bf b7cc f9be
000001e0: fa68 53be 41b0 0ebe 7e83 1cbe 0cbe 79bd
000001f0: 19b1 97bd f9b0 c43d 1370 173c 336b 54bc
00000200: 3d75 c0be cc16 5940 36b7 b43e eb3a fd3d
00000210: 7462 7c3c 5fd2 083c a725 0abe 1db0 133e
00000220: cd4e 013d fd85 04bd f0bc 30bd 8b1f 3a3d
00000230: 783b c0bc 5fab 533d 3aa3 98bc ed9c cebd
00000240: d21e 96bd 993e 02be fa86 bdbc 867e 753d
00000250: 067a a53d 7c44 8ebd 9c59 2d3d 94e4 223c
00000260: 7324 8ebd 0628 9f3b 23a4 1f3d 21b1 6dbd
00000270: 091f 6bbd 2a10 18bb 654a 8dbe cb33 a6c0
00000280: 6001 133e 9618 0bbb 6cd8 223c c9b0 a03d
00000290: 2480 d13c adf2 8b3d 3133 e33b 4abb f03d
000002a0: da3b 813d c1b0 833d d925 b13d cd3d 5fbe
000002b0: 8a41 8f3d 0767 6a40 f051 acc0 3f2b b23c
000002c0: f917 f7bd 319a aabc da68 493d a662 a33c
000002d0: 1346 9c3e dbbe 5ebe 4185 88bd fc4e 773b
000002e0: eeab 8c3c b43d b0bd c50f 653e 2d36 1cbd
000002f0: 0b5e 47bd a9cc b33b 6250 60bc b8f3 4fbd
00000300: da4d 333d 34a6 9abc 0e64 00bd 0168 063b
00000310: b147 f3bc de16 8f3b 3148 2d3d 886e b43b
00000320: 66e5 6bbe 9fd1 2c3e 0357 8abe e25c 6dbd
00000330: 5736 3dbd b8b3 04bd 7c36 da3a a425 20bd
00000340: a129 5abc 21f0 c7bc ad3e ea3c 7f60 b43d
00000350: 6ec6 ad3d e108 023e dafe 723e d730 52bf
00000360: 0b06 723d 2261 023f 5596 07bf 1e05 23bf
00000370: 684c 9bbe fa91 37bf 0fe0 44bf fe59 1cbf
00000380: 60f8 09bf bc40 2a3f 9213 893d 6c50 71be
00000390: de6f 67bf f97f adbf b0ed 56bf bedb a73e
000003a0: 2312 e53d d6dd 773e a76b ddbe ac98 0fbf
000003b0: fd27 d33e 4009 47be 008b f7be a3aa ddbe
000003c0: 92de 34bf c0c1 0cbe 6687 1bbf 6ee5 23be
000003d0: b9f9 35be 8645 dcbd c3ae 46be 7cd5 b5bd
000003e0: 1a8f 8e3d 1ddc 613d bd38 043d 8d48 733d
000003f0: f613 1fbc a5a7 853c 8b5a 0f3c 6e86 423d

fc1.bias f4 [64]
-0.7612165 0.03627799 -0.07970555 3.35798 -0.5409844 -0.35502833 -0.08118177 -1.1716399
-0.7012027 0.37990382 1.5104188 -2.0469515 0.5236926 0.31674662 0.13067725 -0.06260305
0.20187032 0.17237313 0.12819116 1.4119978 -1.4384123 0.7472258 0.962241 0.5074195
-0.5058737 5.3312163 0.46912342 -0.8694572 0.42666423 0.31310415 1.923876 0.33109295
0.9181501 -0.089252844 1.3151934 0.29277125 0.100018956 -1.3151656 2.9895718 -0.4508675
2.7328787 -1.050349 0.7745771 1.4498066 -1.1551956 1.2779697 1.460232 0.30394232
-1.0019336 0.23994358 -0.11223594 0.39463606 0.28531548 0.054984104 0.39675337 2.2768881
-0.61351913 -1.0768584 0.34783497 0.08249346 1.0825558 0.36986953 -0.6828158 0.55248654
00000000: 16df 42bf 3b98 143d aa3c a3bd 25e9 5640
00000010: f47d 0abf 46c6 b5be a142 a6bd 4cf8 95bf
00000020: 0582 33bf c182 c23e 6755 c13f 4101 03c0
00000030: b810 063f 9d2c a23e 42d0 053e 0736 80bd
00000040: 18b7 4e3e 9582 303e 8b44 033e 58bc b43f
00000050: e51d b8bf 314a 3f3f 6d55 763f 3fe6 013f
00000060: f080 01bf 5399 aa40 f230 f03e bf94 5ebf
00000070: bc73 da3e 304f a03e 9241 f63f 0485 a93e
00000080: e30b 6b3f 32ca b6bd 4258 a83f 1de6 953e
00000090: bdd6 cc3d 5957 a8bf 2555 3f40 1bd8 e6be
000000a0: 7ce7 2e40 d671 86bf af4a 463f 4393 b93f
000000b0: 73dd 93bf 8394 a33f e2e8 ba3f 549e 9b3e
000000c0: 5c3f 80bf c5b3 753e f5db e5bd bd0d ca3e
000000d0: df14 923e 0337 613d 4223 cb3e 89b8 1140
000000e0: 970f 1dbf 7fd6 89bf 6d17 b23e 55f2 a83d
000000f0: 3091 8a3f 8a5f bd3e 04cd 2ebf c26f 0d3f

fc2.weight f4 [64, 64]
-0.48204553 -0.6944365 -1.4492286 0.007408992 -0.4203828 0.2611882 -0.31475034 -0.3731394
-0.25992098 -1.0970665 -0.025576528 0.25325546 0.16039047 0.048791464 -1.1853176 -1.1588852
0.10748782 -0.00079132605 -0.43578106 0.75221395 0.051663354 0.004144564 0.2047728 -0.275666
0.50545436 -0.05409145 -0.90056926 -0.084380776 -0.31441507 -1.0134169 -0.10865907 0.1808194
8.7764456e-05 -0.0519408 -0.26146558 -0.3093188 0.44945958 -0.81268954 0.365899 -0.15766227
0.04974145 -0.7913469 -0.7075151 0.07083157 -0.16783144 -0.040911965 0.09124792 -0.03310766
-1.6764836 -0.22551854 0.17877516 -0.03049415 -0.3837533 -0.23782313 -0.44724265 0.0068610446
-0.10416433 -0.17981392 0.47396132 -0.2745942 0.5514297 0.118690334 -0.74511296 0.006940847
-0.2696319 0.60015696 -1.2065321 -0.54444563 -0.60500807 -0.71779 -0.23765752 0.23401608
0.2823214 -0.6421345 -0.32008186 -0.09305726 0.33320442 0.24361368 -0.66339284 0.7943047
-1.0302777 0.28682372 -0.027217887 -0.22860831 0.15547511 -0.030341519 -0.17458057 -0.20995812
-0.15353443 -0.19842228 -0.67892003 0.1499133 -0.47994325 -0.08759605 -1.3435491 0.12234869
0.23430839 -0.12196335 -0.060346156 -0.41032815 -0.14858909 -0.3613093 0.16768293 0.0510181
-0.08633366 -0.61060244 -0.3968721 0.14885937 0.3418348 -0.19683321 0.5956078 -0.25736153
-0.7448622 0.13165075 -0.5775138 -0.0035560941 -0.432756 -0.17104238 -1.7778544 -0.05890534
0.0975176 -0.16619627 -0.17116275 -0.19971831 -0.36989313 -0.13662548 1.1934693 0.014927695
-0.28136614 0.16992277 -2.1614842 0.25691092 0.20382252 -0.85705894 0.15437457 -0.034310825
-0.045700736 -1.2370785 -0.17209858 0.1792212 -0.8376527 -0.11188845 -0.11807006 -0.1425683
-0.22827315 0.02895681 -0.28736308 0.26631442 -1.0658019 -0.047483418 -0.16008513 -0.035676885
0.41523013 -0.25837108 -0.4032669 0.07122312 0.05121896 -1.442445 -0.09622969 0.63813704
-0.29130468 -0.033109535 -0.08392255 0.14861515 0.23251638 0.040559914 -0.53075516 -0.2311333
0.13267438 0.6453777 0.5035151 -0.17397481 -0.21688019 0.3572316 0.51250196 -0.023349706
-1.6677926 -1.1847327 -0.007001248 -0.09040733 0.43893135 0.16531147 0.52013505 -0.031869844
-0.2011261 -0.1440462 0.7137794 -0.42461193 -0.26881164 -0.12211004 0.65996444 -0.069172226
-0.30398437 -0.28155914 -1.053364 -0.8390106 -0.04249023 0.13545713 0.013463842 0.38709274
-0.32316804 -1.1031811 0.16010287 0.09605323 -0.5905367 0.08090961 -0.018365622 1.3562977
0.056185417 0.13595569 -1.0942742 0.029653717 0.08436338 -0.041099872 -0.5945528 0.119226284
0.29451013 0.06093348 -0.124198474 0.0061073736 0.8518171 -0.17344578 0.12187792 -0.7018668
0.48339045 -0.046429902 0.08526156 -0.0024908634 -0.41002655 0.10017527 -0.11360806 -0.14928228
-0.1636599 1.0509465 0.38603693 -0.29379407 0.34756473 -0.46203193 -0.34707412 -0.29810786
-0.6708461 0.21421191 0.04532083 0.45392284 0.7697447 0.12711242 -0.18193845 -2.7915864
-0.25986272 -0.038970415 -0.48488888 -0.35661128 -0.1518121 -0.23291394 0.18159312 0.5149044
00000000: acce f6be 97c6 31bf 5380 b9bf 21c7 f23b
00000010: 6a3c d7be 76ba 853e f526 a1be 210c bfbe
00000020: 5d14 85be ad6c 8cbf de85 d1bc b3aa 813e
00000030: 663d 243e 8fd9 473d 7db8 97bf 5a56 94bf
00000040: 9322 dc3d fe70 4fba b21e dfbe 1891 403f
00000050: f49c 533d 1fcf 873b f6af 513e 1824 8dbe
00000060: 7565 013f ff8e 5dbd b58b 66bf d4cf acbd
00000070: 03fb a0be a5b7 81bf a688 debd b928 393e
00000080: 2f0e b838 e0bf 54bd d1de 85be 095f 9ebe
00000090: 911f e63e 6c0c 50bf 1d57 bb3e 3872 21be
000000a0: b1bd 4b3d b695 4abf b61f 35bf 2410 913d
000000b0: 01dc 2bbe 4e93 27bd 31e0 ba3d e69b 07bd
000000c0: 0497 d6bf 55ee 66be d610 373e dece f9bc
000000d0: 507b c4be e887 73be fdfc e4be 9dd2 e03b
000000e0: 1c54 d5bd 2421 38be 0fab f23e 9c97 8cbe
000000f0: 7f2a 0d3f eb13 f33d b9bf 3ebf 0b70 e33b
00000100: 310d 8abe e3a3 193f a56f 9abf ca60 0bbf
00000110: cfe1 1abf 16c1 37bf 7e5c 73be e9a1 6f3e
00000120: 6e8c 903e ed62 24bf c5e1 a3be ce94 bebd
00000130: c599 aa3e dd75 793e 1dd4 29bf 8e57 4b3f
00000140: 24e0 83bf 8fda 923e 0cf8 debc 4c18 6abe
00000150: de34 1f3e c78e f8bc 40c5 32be 43ff 56be
00000160: 2138 1dbe 362f 4bbe b4cd 2dbf df82 193e
00000170: 1fbb f5be 8f65 b3bd 6bf9 abbf f391 fa3d
00000180: 8aee 6f3e ecc7 f9bd 882d 77bd 8816 d2be
00000190: bd27 18be 88fd b8be 13b5 2b3e 5bf8 503d
000001a0: b4cf b0bd 7150 1cbf d232 cbbe 976e 183e
000001b0: f904 af3e a58e 49be c179 183f e4c4 83be
000001c0: 4aaf 3ebf 74cf 063e f2d7 13bf 5c0d 69bb
000001d0: 3292 ddbe bc25 2fbe bc90 e3bf ba46 71bd
000001e0: 4fb7 c73d 5b2f 2abe 4a45 2fbe f582 4cbe
000001f0: a262 bdbe 8de7 0bbe 9ac3 983f 4a93 743c
00000200: 390f 90be 3c00 2e3e c255 0ac0 d489 833e
00000210: dab6 503e 3768 5bbf 5e14 1e3e 8289 0cbd
00000220: b230 3bbd 9758 9ebf 9c3a 30be c385 373e
00000230: 6870 56bf c625 e5bd b7ce f1bd 6dfd 11be
00000240: 70c0 69be d536 ed3c 4121 93be 5d5a 883e
00000250: 326c 88bf f97d 42bd 5bed 23be ed21 12bd
00000260: 0b99 d43e 3749 84be 0079 cebe 6ddd 913d
00000270: f9ca 513d 0aa2 b8bf 1214 c5bd f35c 233f
00000280: e325 95be dd9d 07bd 96df abbd 922e 183e
00000290: c618 6e3e 2722 263d 92df 07bf 35ae 6cbe
000002a0: cbdb 073e 7937 253f 5ee6 003f 7426 32be
000002b0: d715 5ebe 0fe7 b63e 5433 033f e247 bfbc
000002c0: 3a7a d5bf 52a5 97bf ba6a e5bb 7a27 b9bd
000002d0: 9cbb e03e 6947 293e 9227 053f f489 02bd
000002e0: 00f4 4dbe d980 13be 3fba 363f bc66 d9be
000002f0: aea1 89be d414 fabd 6ef3 283f 2baa 8dbd
00000300: d7a3 9bbe 8528 90be a2d4 86bf 66c9 56bf
00000310: 3c0a 2ebd 46b5 0a3e 7297 5c3c 0531 c63e
00000320: 4876 a5be 0a35 8dbf 02f2 233e 8eb7 c43d
00000330: 6a2d 17bf f0b3 a53d 8073 96bc 2a9b ad3f
00000340: ae22 663d f837 0b3e 2d11 8cbf 5aec f23c
00000350: b5c6 ac3d 5758 28bd 9d34 18bf e92c f43d
00000360: 08ca 963e 6295 793d c55b febd 5d20 c83b
00000370: af10 5a3f c59b 31be 229b f93d 8bad 33bf
00000380: f47e f73e 482d 3ebd 9d9d ae3d c13d 23bb
00000390: 00ef d1be b128 cd3d 58ab e8bd 74dd 18be
000003a0: 7696 27be 6a85 863f a2a6 c53e 2d6c 96be
000003b0: 01f4 b13e 738f ecbe b3b3 b1be 98a1 98be
000003c0: 92bc 2bbf 5e5a 5b3e 56a2 393d 9368 e83e
000003d0: fd0d 453f c229 023e 134e 3abe 5aa9 32c0
000003e0: ba0c 85be 719f 1fbd 5b43 f8be c195 b6be
000003f0: a274 1bbe fe80 6ebe 8cf3 393e c6d0 033f

fc2.bias f4 [64]
0.35573477 -0.39486712 -0.27719584 0.16332488 0.79245615 -0.37186536 -0.36999303 -0.1303321
1.7111233 -0.7519378 -0.07817249 -0.0021983092 -0.18538728 -0.26137245 -2.1995366 0.31550664
-0.08565749 -0.84043664 0.17551292 -0.0873534 -1.2503121 0.016825275 5.586161 -0.05914202
3.6229963 1.3338907 1.8478178 0.84843385 0.46428153 -0.024088778 0.25549483 0.5807999
-0.50965935 -0.014336706 -0.2546105 -0.27709427 -0.0576196 0.14074521 0.30836812 -0.46499982
-0.7281823 1.8748657 0.36908156 -0.42610395 -0.23081419 0.2040938 -0.36206713 0.7750281
2.0301695 -0.8015304 1.1860114 1.2483939 0.42286986 1.3880577 -0.24907632 0.6128605
1.9957263 -0.8470321 -0.5826316 -0.033559192 0.1953102 -0.83212024 -0.34085104 1.7155524
00000000: de22 b63e 062c cabe 9dec 8dbe a33e 273e
00000010: 68de 4a3f 2365 bebe ba6f bdbe c775 05be
00000020: 1706 db3f ff7e 40bf e618 a0bd 8211 10bb
00000030: 2ad6 3dbe 9cd2 85be 35c5 0cc0 168a a13e
00000040: 326d afbd db26 57bf a9b9 333e 57e6 b2bd
00000050: 3a0a a0bf 29d5 893c d5c1 b240 e73e 72bd
00000060: 2cdf 6740 eebc aa3f 4b85 ec3f f632 593f
00000070: 4fb6 ed3e d455 c5bc 38d0 823e 4daf 143f
00000080: 0979 02bf 81e4 6abc 4f5c 82be 4ddf 8dbe
00000090: 8802 6cbd 831f 103e 6de2 9d3e 7514 eebe
000000a0: 286a 3abf 99fb ef3f 42f8 bc3e 4c2a dabe
000000b0: 8e5a 6cbe f7fd 503e dd60 b9be 3e68 463f
000000c0: 4cee 0140 1931 4dbf 39cf 973f 5fcb 9f3f
000000d0: 6682 d83e e0ab b13f dd0d 7fbe 6de4 1c3f
000000e0: f673 ff3f 19d7 58bf 5827 15bf 5d75 09bd
000000f0: 66ff 473e d505 55bf 0784 aebe 3997 db3f

fc3.weight f4 [10, 64]
-1.0374626 -0.06382477 0.102825984 -0.1198014 0.11554703 -0.0550978 0.06468819 0.08907559
-0.07864567 -0.08751136 0.034934774 -1.194383 -0.35171297 -0.116142005 0.65973955 0.11755846
0.16500854 0.26833636 -0.6017413 0.11849834 0.21308993 0.06542447 -1.6592405 -0.27200198
-0.15080285 -0.33332372 -0.20612869 -0.19777685 0.057429783 0.045751672 -0.13253154 -0.022926155
-0.18834645 -0.1340561 -0.11445461 0.05010212 -0.88656586 -0.5387747 -0.043537233 0.31737903
0.07516288 -0.2060664 -0.73549163 0.11803951 0.52572936 -0.050723374 0.07279004 0.043054473
-0.19272703 -0.84179074 -0.15052195 -0.3683029 0.11716538 -0.15334964 -0.09494304 -0.016524766
-0.07312341 0.0883129 0.08739332 -0.085073285 0.0012030499 0.14840648 0.20094097 -0.2120314
0.03404845 0.25760594 -0.3100704 -0.2818163 -0.21992937 -0.089718506 -0.1978656 -0.04367693
0.024829097 0.0073525417 0.08733359 0.13938566 0.058647063 -0.07689829 0.6883144 -0.17042601
0.18328169 -1.1744926 0.21126066 0.063466124 0.10325875 -0.10039385 -1.4724492 0.31471726
-0.110259876 -0.2292119 -0.23196383 0.15113719 0.21569137 -0.11655961 -0.098750085 -0.311394
0.33950675 -0.12272182 -0.0021143267 -0.13137873 -0.42520154 0.24133545 0.73161304 -0.21560052
-0.15348642 -0.49768424 -0.09191947 0.067584336 0.08873857 0.13921897 0.672163 0.0010246115
-0.15799722 -0.60732025 -0.105329774 0.03144023 0.15511987 -0.09701208 -0.45392603 -0.25962582
-0.14507663 0.23358247 0.61496377 0.02930099 -0.8741913 -0.2925886 0.29314965 -0.15752399
-0.18028508 0.3238173 0.093521945 -0.2921334 -0.044004794 -0.027861517 -0.011461993 0.43733874
0.029326873 -0.81330353 0.096502274 -0.6638121 0.05815068 -0.0406181 0.30223846 -0.06855165
0.096908525 0.09838525 0.27111828 0.104798436 0.056174397 -0.031345338 -1.4241586 -0.18834105
-0.08527125 -0.04801102 -0.19665076 -1.2442402 0.29683602 -0.4026277 -0.41085973 -0.23280609
0.051753186 -0.041253652 -0.019790092 0.08709946 -0.16512659 0.22785258 0.053300835 0.04129762
-0.071044855 -0.25246996 -0.19313954 -0.2715326 0.31071022 -0.76551247 0.39839354 -0.18794085
-0.10126204 -0.101682805 -0.07709023 -0.07283694 0.0098997075 -0.16070336 -0.54596937 0.009831006
-0.16822492 0.037888885 0.0818956 -0.018015662 -0.019786881 0.039931476 0.5504309 -0.19063865
-0.07055746 0.19847006 0.1985974 -0.32169083 -0.059105475 -0.17489232 0.2414926 -0.08693125
0.051629793 0.007349902 -0.09362863 -0.19882469 -0.017718004 0.010748112 0.6410478 0.29187393
0.112981156 0.25552946 0.09886187 -0.06297504 0.0599076 0.078408115 -1.2918621 -0.3658594
-0.087112695 -0.019439409 -0.18631078 0.24349152 0.007347673 -0.025367321 -1.1970476 -0.96042186
-0.033226825 -0.120728016 0.15179153 -0.10748253 -0.46408567 0.29301906 -0.15569171 -0.90184647
-0.20734525 -0.7394355 -0.44467673 -0.43064144 0.6844873 -0.6815357 0.34091103 0.03557824
-0.12029418 -0.08556816 -0.042166516 -0.12777604 -0.026021361 -0.19845533 -0.5083598 0.014675623
-0.17447826 0.053236235 0.295681 -0.9725235 -0.0818448 -0.26187515 0.5809349 -0.19875203
00000000: 93cb 84bf 90b6 82bd 6e96 d23d 705a f5bd
00000010: eca3 ec3d 3bae 61bd 3e7b 843d 436d b63d
00000020: fb10 a1bd 2839 b3bd c417 0f3d 8be1 98bf
00000030: b913 b4be dcdb edbd b1e4 283f 7dc2 f03d
00000040: 00f8 283e 6263 893e b80b 1abf 42af f23d
00000050: 3f34 5a3e 44fd 853d fe61 d4bf d843 8bbe
00000060: 106c 1abe 68a9 aabe 6613 53be 0486 4abe
00000070: 7e3b 6b3d 1b66 3b3d 59b6 07be a2cf bbbc
00000080: e4dd 40be 0146 09be 2e67 eabd e137 4d3d
00000090: fbf5 62bf 24ed 09bf 1954 32bd 817f a23e
000000a0: ffee 993d 1203 53be 2e49 3cbf b3be f13d
000000b0: 3396 063f 50c3 4fbd f212 953d e359 303d
000000c0: 3c5a 45be 997f 57bf 6d22 1abe 3392 bcbe
000000d0: 67f4 ef3d b007 1dbe 7f71 c2bd f25e 87bc
000000e0: bac1 95bd 65dd b43d 45fb b23d e73a aebd
000000f0: a8af 9d3a def7 173e 78c3 4d3e c21e 59be
00000100: 6376 0b3d ede4 833e 8cc1 9ebe 3a4a 90be
00000110: 2a35 61be 56be b7bd 489d 4abe 95e6 32bd
00000120: 6466 cb3c 97ed f03b f4db b23d 1dbb 0e3e
00000130: e737 703d da7c 9dbd 5f35 303f 2884 2ebe
00000140: 32ae 3b3e c655 96bf b754 583e 87fa 813d
00000150: 5379 d33d 4a9b cdbd 3779 bcbf 9f22 a13e
00000160: eecf e1bd 86b6 6abe ed87 6dbe b5c3 1a3e
00000170: 33de 5c3e ceb6 eebd 7c3d cabd 096f 9fbe
00000180: d4d3 ad3e 9455 fbbd 8490 0abb 2588 06be
00000190: 04b4 d9be a420 773e fe4a 3b3f 62c6 5cbe
000001a0: 8b2b 1dbe 78d0 febe 4640 bcbd a869 8a3d
000001b0: 91bc b53d 6b8f 0e3e e012 2c3f 424c 863a
000001c0: 06ca 21be 5779 1bbf 23b7 d7bd 78c7 003d
000001d0: bed7 1e3e 45ae c6bd fe68 e8be aded 84be
000001e0: f88e 14be 3e30 6f3e 446e 1d3f a108 f03c
000001f0: 00cb 5fbf 2cce 95be b617 963e f84d 21be
00000200: a79c 38be 62cb a53e 6f88 bf3d 8292 95be
00000210: 5f3e 34bd d63d e4bc 15cb 3bbc ddea df3e
00000220: e93e f03c a934 50bf fca2 c53d 97ef 29bf
00000230: 682f 6e3d 2a5f 26bd 00bf 9a3e cf64 8cbd
00000240: fa77 c63d 357e c93d 04d0 8a3e 90a0 d63d
00000250: 2017 663d f863 00bd d44a b6bf 7adc 40be
00000260: b1a2 aebd 34a7 44bd d15e 49be 4343 9fbf
00000270: e4fa 973e 3825 cebe 355c d2be b864 6ebe
00000280: 26fb 533d 97f9 28bd d51e a2bc 3461 b23d
00000290: f216 29be 3052 693e fa51 5a3d b127 293d
000002a0: f77f 91bd be43 81be 5fc6 45be 5206 8bbe
000002b0: 6915 9f3e a0f8 43bf 3dfa cb3e 9173 40be
000002c0: 7962 cfbd 133f d0bd 7ce1 9dbd 892b 95bd
000002d0: 6232 223c 6c8f 24be a6c4 0bbf 3a12 213c
000002e0: 2743 2cbe 6031 1b3d e1b8 a73d 9595 93bc
000002f0: 1918 a2bc 308f 233d 0ae9 0c3f c736 43be
00000300: 6e80 90bd bc3b 4b3e 1e5d 4b3e a9b4 a4be
00000310: 9518 72bd f916 33be d649 773e 0309 b2bd
00000320: c379 533d 72d7 f03b 5ec0 bfbd b398 4bbe
00000330: 5925 91bc d918 303c b51b 243f 8070 953e
00000340: aa62 e73d c2d4 823e 1878 ca3d 0ff9 80bd
00000350: ac61 753d 6f94 a03d bd5b a5bf ec51 bbbe
00000360: 2468 b2bd 653f 9fbc 41c8 3ebe d755 793e
00000370: c0c4 f03b 21cf cfbc db38 99bf 35de 75bf
00000380: da18 08bd 4040 f7bd 3d6f 1b3e cd1f dcbd
00000390: a39c edbe 9806 963e a66d 1fbe 69df 66bf
000003a0: 5052 54be a54b 3dbf abac e3be 097d dcbe
000003b0: 8f3a 2f3f 2079 2ebf e48b ae3e 7dba 113d
000003c0: cc5c f6bd 5c3e afbd ccb6 2cbd b9d7 02be
000003d0: c02a d5bc e037 4bbe de23 02bf 0672 703c
000003e0: 6eaa 32be 3d0e 5a3d 8063 973e 4df7 78bf
000003f0: 3f9e a7bd 8014 86be 26b8 143f a785 4bbe

fc3.bias f4 [10]
-0.3714768 -0.8921764 -0.70300007 -1.3276323 -1.0192835 -0.49497032 -0.68597525 -0.76815176
-0.8468541 -2.1236393
00000000: 3532 bebe ac65 64bf d0f7 33bf dbef a9bf
00000010: e277 82bf c06c fdbe 139c 2fbf 98a5 44bf
00000020: 6ecb 58bf b5e9 07c0
