checkpoint.pth (torch, 96294 bytes, 6 tensors)

fc1.weight f4 [128, 43]
0	0x3f46696d	0.77504617
1	0x3fe43672	1.7829115
2	0xc01e51e2	-2.4737477
3	0xbd086e57	-0.033308353
4	0x3d7a621e	0.061128728
5	0xbb9f2478	-0.0048566423
6	0xbdcadc7f	-0.099053375
7	0xbd2727a4	-0.04080929
8	0x3da12901	0.07869149
9	0x3d6c12f0	0.057635248
10	0xbce09cac	-0.027418457
11	0x3db25c4f	0.08709013
12	0xbe0aee8f	-0.13567565
13	0xbd294b19	-0.041331384
14	0x3c3ff87e	0.01171696
15	0x3def7db9	0.116939016
16	0x3dabe33f	0.08392953
17	0x3cb39635	0.02192221
18	0x3cd64ddb	0.026160171
19	0x3cae1381	0.021249535
20	0x3d75f123	0.06004442
21	0x3c6ba221	0.014381916
22	0x3d4c2ebf	0.049849268
23	0xbd12a258	-0.035799354
24	0xbd003017	-0.031295862
25	0xbc9aeab0	-0.018910736
26	0x3dc7393a	0.09727712
27	0x3b7e0776	0.0038761771
28	0xbb9e20b1	-0.0048256745
29	0x3debfa18	0.11522311
30	0x3dcc64b3	0.09980144
31	0x3d789dd5	0.060697395
32	0xbdb8168a	-0.08988674
33	0xbcaa355f	-0.020777402
34	0xbd19c5ba	-0.037542082
35	0xbdd772bf	-0.10519933
36	0xbd02a0b5	-0.031891543
37	0x3e2078c5	0.1567107
38	0x3d457510	0.048207343
39	0x3d00c866	0.031441115
40	0x3c2a6b34	0.010401536
41	0xbd8278c0	-0.063706875
42	0x3e7b7adb	0.24558584
43	0x3ef5e033	0.48022613
44	0xbe91846b	-0.2842134
45	0xbfe5ed49	-1.7963039
46	0x3e84d377	0.25942585
47	0x3ea61917	0.32441017
48	0x3d9e7543	0.0773721
49	0xbd9b7fd4	-0.07592741
50	0xbd1e6dda	-0.03867898
51	0x3ecb59ff	0.397171
52	0x3e99125a	0.29896814
53	0xbd4d5c2c	-0.05013673
54	0xbf1cab3f	-0.611988
55	0xbf1259cc	-0.5716827
56	0x3e3df41d	0.18550153
57	0x3e55b20b	0.20868699
58	0x3e9160dd	0.28394213
59	0xbe99b1a1	-0.30018333
60	0xbdaf4361	-0.085577734
61	0x3e8ec6a1	0.27885917
62	0xbc81c147	-0.015839232
63	0x3c8b6d8c	0.01702001
64	0xbdc1cbe5	-0.09462718
65	0xbdf4943c	-0.11942336
66	0x3e570aae	0.21000168
67	0x3d823f85	0.06359772
68	0x3b12a235	0.0022374515
69	0xbd8fd343	-0.07022717
70	0xbd22d185	-0.039750595
71	0xbe6e0f4b	-0.23248021
72	0x3ddd1b17	0.107961826
73	0x3e0d6b4b	0.1381046
74	0x3dafa606	0.08576588
75	0x3c4a0fa3	0.01233283
76	0x3c7bed7e	0.015376447
77	0xbe0b29c0	-0.13590145
78	0xbd05a1b2	-0.032624908
79	0xbde3b294	-0.111180454
80	0xbdb787a6	-0.0896142
81	0x3de27bdb	0.1105878
82	0x3d327dab	0.043576878
83	0xbe1280aa	-0.14306894
84	0xbc943667	-0.018092347
85	0xbd003dc7	-0.031308915
86	0x40080722	2.1254354
87	0xbe5ba066	-0.21447906
88	0x3f1af5ab	0.6053111
89	0x3de410b7	0.111360006
90	0x3e55c9c5	0.2087775
91	0x3e031d32	0.12804106
92	0x3e110d47	0.14165221
93	0x3d481d9e	0.04885637
94	0xbd4336f1	-0.047659818
95	0x3e58c9a4	0.2117067
96	0xbcbbc5dc	-0.022921495
97	0xbee16bf3	-0.4402767
98	0x3eea63f0	0.4577937
99	0xbd9ae695	-0.07563511
100	0x3edc2058	0.42993426
101	0xbc825f84	-0.015914686
102	0xbeea5db8	-0.45774627
103	0xbc16f714	-0.009214181
104	0xbde279b7	-0.110583715
105	0x3e49d413	0.19709806
106	0xbe20cb56	-0.15702567
107	0x3d393a08	0.04522136
108	0xbd10a6d2	-0.035315342
109	0xbdaec0f2	-0.08532895
110	0x3d1bf100	0.038071632
111	0x3d200fbc	0.039077505
112	0xbd3991ef	-0.04530519
113	0x3ea54a42	0.32283217
114	0x3ebc829e	0.36818403
115	0xbc024f16	-0.007953426
116	0x3e1ca633	0.15297775
117	0xbb71efd1	-0.0036916623
118	0xbd924eaf	-0.07143914
119	0xbdbd13b7	-0.09232276
120	0xbd9cc0b8	-0.07653946
121	0xbde57fa8	-0.11205989
122	0xbde14d28	-0.110010445
123	0x3c70a44a	0.014687607
124	0xbe0a007b	-0.13476746
125	0xbdb1c455	-0.086800255
126	0xbd8ff9bd	-0.07030056
127	0xbd822cd5	-0.06356207
128	0xbe3eeaeb	-0.18644302
129	0x3feb2a9c	1.8372378
130	0xbe9b55da	-0.30338937
131	0x3e473559	0.19453944
132	0x3d6e8dec	0.058240816
133	0x3ecdc3d5	0.4018847
134	0x3e2d8053	0.16943483
135	0x3ee37e76	0.4443242
136	0x3e92da02	0.28681952
137	0xbb2ae526	-0.0026076525
138	0xbd225780	-0.039634228
139	0x3e01e3c1	0.12684537
140	0x3e4bc4ef	0.19899343
141	0x3d646a17	0.055765238
142	0x3e759b2e	0.23984978
143	0xbeb46b20	-0.3523798
144	0xbd9e2f79	-0.077238984
145	0xbdb7517b	-0.08951088
146	0x3e77c3ac	0.24195737
147	0x3e83bf2a	0.25731784
148	0xbe03f4b4	-0.12886316
149	0xbe227f35	-0.15868838
150	0xbeb453ac	-0.35220087
151	0xbe6466d4	-0.22304851
152	0xbdfe02d4	-0.12402883
153	0xbcc32a2a	-0.023823816
154	0xbd509383	-0.05092193
155	0xbd88520f	-0.066562764
156	0xbcb7b960	-0.02242726
157	0xbea1cd4a	-0.31601936
158	0x3db2d2a6	0.08731584
159	0xbeb80b92	-0.35946327
160	0xbe615ef0	-0.22008872
161	0xbd710004	-0.058837906
162	0xbdd583b9	-0.10425515
163	0xbdc200e5	-0.09472827
164	0x3d84f868	0.06492692
165	0x3dd7055f	0.10499071
166	0x3c13cbad	0.009020728
167	0x3e3e50ef	0.18585561
168	0xbd18238f	-0.037143286
169	0x3d322d67	0.04350033
170	0x3e179132	0.14801481
171	0xbd8d9c9b	-0.06914636
172	0x3f7ab3ce	0.9793061
173	0xbc1cd91e	-0.009573249
174	0xbeb96884	-0.36212552
175	0xbe0828b6	-0.1329678
176	0xbe9831ec	-0.29725587
177	0x3ee28d13	0.44248256
178	0x3e80a203	0.25123605
179	0xbe18315c	-0.14862579
180	0xbdb25c9b	-0.08709069
181	0xbddc70df	-0.10763716
182	0xbe29fdb1	-0.16600682
183	0x3e2dc308	0.1696893
184	0x3e1571ea	0.14594236
185	0xbe8ae3fe	-0.2712707
186	0xbe1231f4	-0.14276868
187	0xbe814f37	-0.2525575
188	0xbda91395	-0.08255688
189	0x3e922cbe	0.2854976
190	0x3f26f82a	0.6522242
191	0x3e85e68f	0.26152465
192	0xbe8d626d	-0.27614155
193	0xbe577944	-0.21042353
194	0xbed85563	-0.42252645
195	0x3e830bbd	0.25594893
196	0xbe6c2fd2	-0.23065117
197	0xbe33f5e4	-0.17574269
198	0x3d2daafe	0.0423994
199	0x3d91a091	0.07110704
200	0x3e3e2fa1	0.18572856
201	0x3e9108c2	0.28326994
202	0xbe16f910	-0.14743447
203	0xbde54aeb	-0.1119593
204	0xbd4839f7	-0.048883405
205	0x3e006715	0.12539323
206	0xbccc2215	-0.024918595
207	0x3ba7457c	0.0051047187
208	0xbbc2c143	-0.0059434487
209	0xbd1d8d84	-0.038465038
210	0xbb32d145	-0.002728538
211	0x3c0311fe	0.007999895
212	0xbb1f89fb	-0.0024343717
213	0xbc85fba3	-0.016355341
214	0xbcf2d033	-0.029640293
215	0x40019078	2.0244427
216	0xbfe330f2	-1.7749312
217	0x3f2398cf	0.6390504
218	0x3d885484	0.06656745
219	0xbdc03130	-0.09384382
220	0x3db7ed76	0.08980839
221	0x3ddd3986	0.10801987
222	0x3d3547c7	0.044257905
223	0x3c5c2b28	0.013438024
224	0x3cbff352	0.023431454
225	0xbc5eae92	-0.0135914255
226	0xbd401cf7	-0.046902623
227	0xbddec21d	-0.10876868
228	0x3bcbe93e	0.006222873
229	0x3bc056fe	0.0058697453
230	0xbc26b6d9	-0.01017543
231	0x3c7a95fa	0.015294546
232	0xbcf7d9d3	-0.030255234
233	0x3c4ed68b	0.012624393
234	0xbd95c315	-0.073125996
235	0xbcb73501	-0.022364141
236	0x3cb38ff2	0.021919224
237	0xbc6c7ed3	-0.014434534
238	0x3dad5e53	0.084652565
239	0x3dad26ac	0.08454642
240	0x3d6ce490	0.05783516
241	0x3d745a9a	0.059656717
242	0xbd654a96	-0.055979334
243	0x3c2b1205	0.010441308
244	0x3e1f6315	0.1556514
245	0xbe9d8b97	-0.3077056
246	0x3dbb1067	0.09133988
247	0xbd21f610	-0.039541304
248	0x3d31da56	0.043421112
249	0x3b2e90f7	0.0026636699
250	0xbd51129d	-0.05104314
251	0xbb3a56fd	-0.0028433197
252	0x3d81483f	0.06312608
253	0xbb4156ad	-0.0029501126
254	0xbd66fbb5	-0.05639239
255	0x3c546170	0.012962684

fc1.bias f4 [128]
0	0x3e95d14a	0.29261237
1	0x3ef2bf99	0.47411802
2	0x3fd54d2f	1.666418
3	0x3fd7477e	1.6818693
4	0x3f2d2b9b	0.6764466
5	0x3fc6e4d6	1.5538585
6	0x3fbb904d	1.4653412
7	0xbf57a3ca	-0.842343
8	0xbf98956b	-1.1920599
9	0x3f6f142f	0.9339017
10	0xbefa2eb7	-0.48863766
11	0x3eb562d0	0.3542695
12	0xbf64d241	-0.8938332
13	0x3e3d8622	0.18508199
14	0x3d6c67d4	0.057716206
15	0x3f67f9da	0.9061562
16	0x3e25efed	0.16204806
17	0x3f0635af	0.52425665
18	0xbe140f61	-0.14458992
19	0x3fabfa57	1.3435773
20	0xbe4cd6ad	-0.20003767
21	0x3fd6714c	1.6753325
22	0x3fdaa406	1.7081306
23	0xbf5a3017	-0.8522963
24	0xbf790bfe	-0.97283924
25	0xbb98eb09	-0.0046666902
26	0x3ecd9bdb	0.4015797
27	0x3f26f6da	0.65220416
28	0x3e7253a8	0.23664725
29	0x3e24b6df	0.16085385
30	0xbfa5c49b	-1.2950624
31	0xbd0da17e	-0.03457784
32	0x3f07130e	0.5276345
33	0x3dce878f	0.100844495
34	0x3fc8e60f	1.5695208
35	0x3f9d0017	1.2265652
36	0x3ed02cb7	0.40659115
37	0xbea86cbe	-0.32895464
38	0x3e6cf43c	0.23140043
39	0xbca703a1	-0.020387473
40	0x3fa00ee2	1.2504542
41	0x3db0009f	0.085938685
42	0x3e2d6a02	0.1693497
43	0x3f9de8cc	1.2336669
44	0xbf03c15a	-0.51466906
45	0xbf5cec21	-0.86297804
46	0x3fa6a84d	1.3020111
47	0x3f1920b5	0.5981553
48	0xbf997b0e	-1.1990678
49	0x3fb946a2	1.447468
50	0x3f996a06	1.1985481
51	0x3f193b44	0.5985606
52	0x3fcba3f9	1.5909415
53	0xbf25a47f	-0.64704126
54	0x3f437339	0.7634769
55	0x3fdfb523	1.7477154
56	0x3f1652b1	0.5871993
57	0xbfeba0a9	-1.8408405
58	0x3edba0e5	0.4289619
59	0x3ed741a5	0.4204227
60	0x3f5a2d62	0.852255
61	0xbf704a9d	-0.9386385
62	0xbe8ca8cd	-0.27472535
63	0xbd114e14	-0.03547485
64	0x3fba849c	1.4571719
65	0x3e954f4d	0.29162064
66	0x3d700870	0.058601797
67	0x3fdaf793	1.7106804
68	0x3f0bcd8d	0.5461052
69	0xbe06317c	-0.13104814
70	0x3fbf40d1	1.4941655
71	0xbe8e62e2	-0.27809817
72	0x3f1b5316	0.60673654
73	0xbd308d6b	-0.043103617
74	0x3def31ef	0.11679446
75	0x401e1748	2.470171
76	0x3f6c5761	0.9232083
77	0x3fa14fc7	1.2602471
78	0xbd113550	-0.035451233
79	0x3f125507	0.5716099
80	0x3eb9bbdd	0.3627614
81	0x3efab003	0.4896241
82	0x3fcaa899	1.5832702
83	0x3f48b81e	0.7840594
84	0xbd6b312a	-0.057419933
85	0x3eab3844	0.33441365
86	0xbd978402	-0.07398225
87	0x3f1a77df	0.6033916
88	0x3fd76943	1.6828998
89	0xbea48ffa	-0.32141095
90	0x3d5cb508	0.053883582
91	0x3f142aa8	0.5787759
92	0xbf03a47f	-0.51422876
93	0x3f81bde8	1.013608
94	0xbf48d832	-0.7845489
95	0xbef83775	-0.4847981
96	0x3faf6455	1.3702494
97	0x3fb7fea1	1.4374582
98	0xbed865f4	-0.42265284
99	0x3ee00803	0.43756112
100	0xbc2a01a5	-0.010376369
101	0x3ef161ce	0.47144932
102	0x3e9004f6	0.28128785
103	0x3d90ac8d	0.070641614
104	0x3da5231c	0.08063337
105	0x3ff6b2df	1.9273337
106	0x3f9733c4	1.1812673
107	0xbd81353f	-0.06308984
108	0xbe2e18a5	-0.17001589
109	0x3f6130fd	0.87965375
110	0xbe4a3b4d	-0.19749184
111	0xbfb7dadc	-1.4363666
112	0xbe79c681	-0.2439213
113	0x3f6ecbf3	0.9327995
114	0xbc40c557	-0.0117657995
115	0x3fe978c0	1.8239975
116	0xbe23d3a5	-0.15998705
117	0x3e5a3186	0.21307954
118	0x3e56edc6	0.20989141
119	0xbea95a2b	-0.33076605
120	0xbeb632b0	-0.35585546
121	0x3f00c9f0	0.5030813
122	0x3e8b303f	0.27185246
123	0xbcc1d5ec	-0.023661576
124	0xbef30d5b	-0.47471127
125	0xbd3ddd6e	-0.04635375
126	0xbefe2f4d	-0.49645463
127	0x3f036e3e	0.5134009

fc2.weight f4 [128, 128]
0	0x3e43717c	0.1908626
1	0xbe1b6a9b	-0.15177386
2	0x3d8ed097	0.06973379
3	0xbdc0a63c	-0.09406707
4	0x3d02d37f	0.03193998
5	0xbdf3101b	-0.11868306
6	0xbe2ed32a	-0.1707274
7	0xbe285b7a	-0.16441146
8	0xbe4be1b8	-0.19910324
9	0xbddb8832	-0.107193366
10	0xbec6cfa7	-0.388303
11	0x3ddba682	0.10725118
12	0xbe2a1877	-0.16610895
13	0x3e1b329d	0.15156026
14	0x3dad9d17	0.08477228
15	0xbe0cf384	-0.13764769
16	0xbca6f149	-0.020378726
17	0xbc96d660	-0.018412769
18	0xbe060222	-0.13086751
19	0xbe88f670	-0.26750517
20	0xbdff0f39	-0.12454075
21	0xbeab18ef	-0.3341746
22	0x3e20101f	0.1563115
23	0x3dbdd007	0.09268194
24	0x3e1ca5e0	0.15297651
25	0x3d6579e6	0.056024455
26	0xbd68b582	-0.056813724
27	0xbe8586f7	-0.26079533
28	0x3d843f8e	0.064574346
29	0x3d45640a	0.048191108
30	0x3eb19962	0.34687334
31	0x3c808073	0.01568625
32	0xbe74f409	-0.23921217
33	0xbd8b019b	-0.067874156
34	0xbe5f9204	-0.21833044
35	0xbd9ca74c	-0.07649097
36	0x3e8bb674	0.27287638
37	0xbeb0170d	-0.34392586
38	0xbe32b232	-0.17450789
39	0xbd0d3a16	-0.034479223
40	0x3dae3f26	0.08508138
41	0x3e9d2212	0.30690056
42	0xbdd61882	-0.10453893
43	0xbdf9c6ea	-0.12196143
44	0xbd7cac0f	-0.061687525
45	0xbdb02853	-0.08601441
46	0x3e618901	0.22024919
47	0x3db8d837	0.09025615
48	0x3da3da30	0.080006
49	0xbe7aea53	-0.2450345
50	0x3e15769f	0.14596032
51	0xbea346ac	-0.31889856
52	0x3d035998	0.032067865
53	0x3d9b13ee	0.07572161
54	0x3e4e0f62	0.20123056
55	0x3e6ae47c	0.22938722
56	0x3d1a6b94	0.03770025
57	0xbf028073	-0.5097725
58	0x3d2ccac9	0.04218558
59	0x3e10622c	0.1409995
60	0x3e8d912a	0.27649814
61	0xbd2b1c30	-0.04177493
62	0xbe93b4a4	-0.28848755
63	0x3db32f4c	0.087492555
64	0xbe0785a1	-0.13234569
65	0xbebd379f	-0.36956498
66	0xbb771006	-0.003769876
67	0x3c95dc20	0.01829344
68	0xbd8a1cee	-0.06743799
69	0xbde1ec75	-0.11031429
70	0xbf1aff9d	-0.60546285
71	0x3e385768	0.18002093
72	0xbe694dfa	-0.22783652
73	0xbd393a83	-0.045221817
74	0x3d9ebd94	0.07751003
75	0x3ca7f30f	0.020501642
76	0xbe4888b0	-0.19583392
77	0xbe893a4c	-0.2680229
78	0x3e454bcb	0.19267194
79	0x3dc4ce0b	0.09609612
80	0xbc620368	-0.013794757
81	0xbd154e5e	-0.03645169
82	0x3e97f11e	0.29676145
83	0xbe161f85	-0.14660461
84	0x3e026e42	0.12737373
85	0xba15238f	-0.00056891976
86	0xbe0c250d	-0.13686009
87	0xbd8943ca	-0.06702383
88	0xbe5ef66d	-0.21773691
89	0xbe8c3fbd	-0.27392378
90	0xbca06929	-0.019581394
91	0xbe884dc7	-0.2662184
92	0xbd122bc9	-0.035686288
93	0x3d830019	0.06396503
94	0xbc1bad53	-0.009501773
95	0x3de13d77	0.109980516
96	0xbeb6b7e6	-0.35687178
97	0x3dcaa868	0.09895402
98	0x3e316ec2	0.17327407
99	0x3c0895cb	0.008336495
100	0xbe5fbe35	-0.21849902
101	0xbe230ed6	-0.15923628
102	0x3e1985e1	0.14992477
103	0xbc523649	-0.012830325
104	0xbdbbaa86	-0.09163384
105	0x3d36cc49	0.044628415
106	0x3da20179	0.07910437
107	0x3d88970d	0.06669436
108	0x3dd1b7b4	0.10240117
109	0xbdac9397	-0.08426588
110	0x3dee5269	0.11636812
111	0x3e7762a9	0.2415873
112	0x3db638d5	0.088975586
113	0x3baf83fa	0.005356309
114	0x3d94ec41	0.07271624
115	0x3e18d973	0.149267
116	0x3d2a6629	0.041601334
117	0xbe22962b	-0.15877597
118	0xbe968e27	-0.2940533
119	0x3e8a23f3	0.26980552
120	0x3d665d2c	0.0562412
121	0xbe9855f8	-0.2975309
122	0xbe5d4cc0	-0.21611309
123	0x3e43c190	0.19116807
124	0xbe5fb018	-0.21844518
125	0x3cbc2363	0.022966092
126	0x3d0dff61	0.034667376
127	0xbe5d116d	-0.21588679
128	0xbe7466a5	-0.23867281
129	0x3d3abb8a	0.045589007
130	0xbe52c60d	-0.20583363
131	0x3e46c9e4	0.19412953
132	0xbe71474c	-0.23562354
133	0xbe91671e	-0.28398985
134	0xbd1f703a	-0.038925387
135	0xbe404542	-0.1877642
136	0xbdff6a3d	-0.12471435
137	0xbe96cc91	-0.29452947
138	0xbe2e3f26	-0.17016277
139	0xbc8ce913	-0.017200982
140	0xbd7b6ddd	-0.06138407
141	0xbe0d037a	-0.13770857
142	0x3e2cbff5	0.16870101
143	0xbe14681c	-0.1449284
144	0x3e161e08	0.14659894
145	0xbe43b6ac	-0.19112653
146	0x3d19cabc	0.03754686
147	0xbc9c9525	-0.019114086
148	0x3d302ef3	0.043013524
149	0xbd81985e	-0.0632789
150	0xbcc0a282	-0.02351499
151	0x3d15ceb4	0.03657408
152	0xbdea91ba	-0.114535764
153	0xbbb2f565	-0.005461382
154	0xbcfcb357	-0.030847235
155	0xbe11c062	-0.14233544
156	0xbea9aa3f	-0.331377
157	0xbe0901b9	-0.13379563
158	0xbd033d4b	-0.032040875
159	0x3d859d52	0.06524147
160	0x3d88cbcf	0.066794984
161	0x3d9971ee	0.074924335
162	0x3c9d2e9e	0.019187268
163	0xbdc39976	-0.09550755
164	0x3dbbfa8f	0.0917865
165	0xbe39d996	-0.18149409
166	0x3e3a21ed	0.18177004
167	0x3cfcc0d6	0.03085367
168	0x3e4b69b7	0.19864546
169	0x3e161217	0.14655338
170	0xbc1408cc	-0.0090353
171	0xbd4637ce	-0.048393063
172	0xbecc3767	-0.3988602
173	0xbdecc2dc	-0.11560604
174	0xbdf4c6f7	-0.11952012
175	0xbba4561e	-0.005015149
176	0xbe125b4b	-0.14292638
177	0xbd8a52f9	-0.06754107
178	0xbe270559	-0.16310634
179	0xbe6fcd9b	-0.23418276
180	0xbd979f11	-0.074033864
181	0xbc807d29	-0.015684681
182	0xbe196c92	-0.14982823
183	0xbdc32aa1	-0.09529615
184	0xbd57d995	-0.052697737
185	0xbda3d2f9	-0.07999224
186	0xbd5bca06	-0.05365946
187	0x3c4d7e93	0.012542385
188	0xbd0a49e8	-0.03376189
189	0xbe0ac12f	-0.13550256
190	0xbc484b9d	-0.012225059
191	0xbd4735a5	-0.048635144
192	0xbe739a5a	-0.23789349
193	0x3d6312a1	0.055437688
194	0x3d8d2b59	0.068930335
195	0xbdcbc7c1	-0.099502094
196	0xbe13aa05	-0.14420326
197	0xbd2771b1	-0.04087991
198	0xbd7877a5	-0.060660977
199	0x3e0b25df	0.13588665
200	0xbe8f4b14	-0.27986968
201	0xbb2e7ac0	-0.0026623458
202	0xbe264a71	-0.16239335
203	0xbe318528	-0.17335951
204	0xbe0d038d	-0.13770886
205	0xbe114c39	-0.14189233
206	0x3e1dd580	0.15413475
207	0x3d75c1fc	0.05999945
208	0x3e0ef5a1	0.13960887
209	0xbe529bfd	-0.20567317
210	0xbd0e450d	-0.03473382
211	0xbd129412	-0.035785742
212	0x3e14ca72	0.14530352
213	0xbd89eb2b	-0.06734308
214	0x3e49d7f4	0.19711286
215	0x3d86ab2d	0.06575618
216	0x3e60b55d	0.21944185
217	0x3c99b32f	0.0187622
218	0xbbd4cf60	-0.0064944476
219	0xbe3a430c	-0.18189639
220	0xbe221b9e	-0.15830848
221	0xbdb2781d	-0.08714316
222	0xbbacfb05	-0.0052789473
223	0x3d935496	0.07193868
224	0xbe0a7af6	-0.13523468
225	0xbd636b48	-0.055522233
226	0xbd855c10	-0.065117
227	0x3d6e3441	0.058155302
228	0xbd3c4e82	-0.04597331
229	0xbc7c469a	-0.015397692
230	0x3d2b6069	0.04183999
231	0x3dc98192	0.09839167
232	0x3dc5669c	0.09638712
233	0xbe117569	-0.14204945
234	0x3e3050d2	0.1721833
235	0xbe287ff3	-0.16455059
236	0x3d5beeab	0.05369441
237	0x3e0375d6	0.1283792
238	0x3e223269	0.15839542
239	0xbd141ca8	-0.03616014
240	0x3da5575e	0.080733046
241	0xbd673034	-0.056442454
242	0xbe0d2916	-0.13785204
243	0xbe9c55c7	-0.30534193
244	0x3ad7e4a7	0.0016471342
245	0x3cad5da9	0.021162825
246	0xbd20977a	-0.03920696
247	0xbd0bb0a4	-0.034104005
248	0xbd2da094	-0.042389467
249	0xbe4f3293	-0.20234136
250	0x3e17db22	0.14829686
251	0x3cdade99	0.026717471
252	0x3d5bb1ae	0.053636245
253	0xbd010246	-0.03149631
254	0xbc38ed6d	-0.0112870755
255	0xbc0f59ff	-0.008749484

fc2.bias f4 [128]
0	0x3f5afc37	0.855411
1	0xbd84c591	-0.06482995
2	0x3dadbfd2	0.084838524
3	0xbf119ba5	-0.5687812
4	0xbd586288	-0.05282834
5	0x3d4c6c2f	0.04990786
6	0x3f7f01ca	0.99612105
7	0xbd1530bb	-0.036423426
8	0x3fbe2040	1.4853592
9	0x3d9b20d4	0.07574621
10	0xbdf34be3	-0.118797086
11	0x3dc561b3	0.09637775
12	0x3d83906b	0.0642403
13	0xbe06501a	-0.13116494
14	0x3c88a9c7	0.016682519
15	0xbd82130c	-0.06351289
16	0xbdc44d2d	-0.095850326
17	0xbdb66fc3	-0.089080356
18	0xbd0e8eea	-0.034804262
19	0x3ea4427c	0.32081974
20	0xbdd494b4	-0.10379925
21	0x3fc9365c	1.5719714
22	0xbd8cf8f8	-0.068834245
23	0x3fac040f	1.3438739
24	0x3bfdedc4	0.007749291
25	0xbd83ed33	-0.064417265
26	0x3eb6b9d8	0.35688663
27	0x3e163e54	0.14672214
28	0xbd22cd08	-0.039746314
29	0x3dd7de2e	0.10540424
30	0xbe704ec6	-0.2346755
31	0xbc20a3ce	-0.009804679
32	0xbe8ded56	-0.27720135
33	0x3e6aeb15	0.22941239
34	0x3de49ce8	0.1116274
35	0x3cf5826c	0.029969417
36	0x3d84725c	0.06467125
37	0x3fd8f122	1.6948588
38	0x3ea2b58b	0.3177913
39	0xbcfb9521	-0.030710759
40	0x3da50075	0.08056728
41	0xc0067ffd	-2.1015618
42	0x3dd76d7d	0.1051893
43	0x3fdcd072	1.7251112
44	0x3c08962e	0.008336587
45	0xbc0647d6	-0.008195838
46	0xbe35ad71	-0.17741944
47	0xbfc89e9e	-1.5673406
48	0x3f89dec5	1.0771109
49	0xbd8e67e0	-0.06953406
50	0x3d876d59	0.06612653
51	0x3ed991d0	0.4249406
52	0xbc9cf13f	-0.019158004
53	0xbd17589e	-0.036949746
54	0xbf6487c7	-0.8926968
55	0xbe1c923d	-0.1529016
56	0xbf95e9b0	-1.1711941
57	0xbc7a8da5	-0.01529256
58	0x3d4638f5	0.048394162
59	0xbe05d1be	-0.13068292
60	0x3d28c8c6	0.041207097
61	0xbe020081	-0.12695505
62	0xbe037219	-0.12836494
63	0xbc3b1471	-0.011418448
64	0xbe10eeb8	-0.14153564
65	0xbd3b5ef8	-0.045744866
66	0xbe22257e	-0.15834615
67	0xbb8d4df0	-0.0043122694
68	0xbe11483e	-0.14187714
69	0xbd210307	-0.039309528
70	0x3df766e7	0.12080174
71	0x3cf14208	0.029450431
72	0xbe7dd168	-0.24786913
73	0xbd19bfe9	-0.037536535
74	0xbd1a0bf0	-0.03760904
75	0x3d55265c	0.052038535
76	0xbd7f7993	-0.0623718
77	0xbdf68257	-0.12036579
78	0xbd59c133	-0.053162765
79	0xbd9f2302	-0.07770349
80	0xbd383a67	-0.04497757
81	0x3fb84f31	1.4399167
82	0x3e13dd79	0.14439954
83	0x3d477193	0.048692297
84	0x3dd3cb1a	0.10341473
85	0xbe4bcd44	-0.19902521
86	0x3fb59254	1.4185281
87	0xbfefc1d5	-1.8731028
88	0x3e098a41	0.13431646
89	0xbe4e48ff	-0.20145033
90	0xc0173886	-2.362825
91	0xbf0abc2a	-0.54193366
92	0xbd83d198	-0.06436461
93	0x3d2e0c89	0.042492423
94	0xbdea55f4	-0.114421755
95	0xbda39381	-0.079871185
96	0xbd950b7a	-0.072775796
97	0xbe85f499	-0.26163176
98	0xbdcf00eb	-0.10107597
99	0xbf7b4fec	-0.98168826
100	0xbce99ce9	-0.028517203
101	0x3dc9d258	0.09854573
102	0x4025032b	2.5783184
103	0x3d8a7f79	0.06762595
104	0x3fdacaa0	1.7093086
105	0x3f30647e	0.6890334
106	0x3ccffa71	0.025387974
107	0xbe005490	-0.12532258
108	0x3d2b1d37	0.04177591
109	0xbd2fcc8d	-0.042919684
110	0xbe04430b	-0.129162
111	0xbdb60ec9	-0.08889539
112	0xbe8b113d	-0.2716159
113	0xbe27e9a5	-0.16397722
114	0x3fb4a03f	1.4111403
115	0xbe6c5bb6	-0.2308186
116	0x3e9dcbb2	0.3081947
117	0x3f8a012f	1.0781611
118	0x4039a29a	2.9005494
119	0xbfec8972	-1.8479445
120	0x3d1dba7a	0.038507916
121	0xbef515de	-0.47868246
122	0x3f9a4b76	1.2054279
123	0x3f34b038	0.7058139
124	0xbe6eb404	-0.23310858
125	0x3f9f1ded	1.2431008
126	0x3c0dd878	0.008657567
127	0xbddf835b	-0.10913726

fc3.weight f4 [10, 128]
0	0xbdaf60b7	-0.08563369
1	0xbe6d5f8d	-0.23180981
2	0xbb823148	-0.00397316
3	0x3ccd9a17	0.02509789
4	0xbd9fe044	-0.07806447
5	0x3d443859	0.0479053
6	0xbd865412	-0.06559004
7	0xbdf296a8	-0.11845142
8	0xbc48fa6d	-0.012266737
9	0x3ec9c609	0.394089
10	0xbd6ed31d	-0.058306802
11	0x3da86a61	0.08223415
12	0xbc172aa3	-0.009226474
13	0x3c128c75	0.00894462
14	0xbce7291e	-0.028217848
15	0xbe2e7bd2	-0.17039421
16	0xbc541f4e	-0.012946917
17	0x3c2b95bf	0.010472714
18	0x3bde5279	0.006784734
19	0xbe2a2af4	-0.16617948
20	0x3e06ed12	0.13176373
21	0xbe17ab7d	-0.14811511
22	0xbe62f5db	-0.22164099
23	0xbe269193	-0.1626647
24	0xbd18302a	-0.037155308
25	0x3d06df05	0.03292753
26	0x3c80a59b	0.015703967
27	0x3e5da987	0.21646701
28	0xbc4d755d	-0.012540189
29	0x3c12f509	0.008969554
30	0x3d853b38	0.06505436
31	0x3e7dbc8f	0.2477896
32	0x3ba16867	0.004925776
33	0xbe8e76e5	-0.27825084
34	0xbe2463d7	-0.16053711
35	0x3d8a8f88	0.06765658
36	0xbe9ef47c	-0.31045902
37	0xbee9357a	-0.45548612
38	0xbd532a61	-0.051554088
39	0xbd2660be	-0.040619604
40	0xbde34fb7	-0.11099189
41	0x3cd80ff1	0.026374789
42	0xbd63cfa4	-0.055617943
43	0xbca81960	-0.020519912
44	0xb9befaf6	-0.00036426604
45	0x3d44f217	0.048082437
46	0x3d39da4c	0.0453742
47	0x3df3e64a	0.119091585
48	0xbd84deb6	-0.06487791
49	0x3c0a5713	0.008443612
50	0x3e4b6067	0.19860993
51	0xbeb3d672	-0.35124546
52	0x3e9bac46	0.30404872
53	0xbeb3b97a	-0.35102445
54	0x3dadc47c	0.08484742
55	0xbc6e59f4	-0.014547814
56	0x3d9941a1	0.07483221
57	0xbbac1363	-0.0052513345
58	0xbd6daac6	-0.05802419
59	0x3d4ad0ac	0.04951541
60	0x3d7829de	0.060586803
61	0xbd0293cf	-0.031879243
62	0xbc8bfd1d	-0.017088467
63	0xbe9e3c10	-0.309052
64	0x3c78096c	0.015138965
65	0xbb3a3a88	-0.0028416235
66	0xbb54fdc2	-0.0032499884
67	0xbd07ef70	-0.03318733
68	0xbbafc059	-0.005363506
69	0x3d8a40fd	0.06750677
70	0xbe745c55	-0.23863347
71	0xbd95c821	-0.07313562
72	0xbd042e15	-0.03227051
73	0xbdf1269d	-0.11774943
74	0x3c52f6d5	0.012876232
75	0xbefdaffd	-0.4954833
76	0xbd5f5a41	-0.054529432
77	0xbde12333	-0.10993042
78	0x3d2dc475	0.042423684
79	0x3d8bb342	0.068213
80	0x3ceaabf8	0.028646454
81	0xbf193f37	-0.59862083
82	0xbe98e05a	-0.29858667
83	0x3cb98177	0.022644741
84	0x3e4213f5	0.18952926
85	0x3d64fe14	0.05590637
86	0xbd7e11c2	-0.062028654
87	0x3da9c842	0.08290149
88	0xbe39b7d7	-0.18136536
89	0xbb21d12d	-0.002469133
90	0x3d1b9a56	0.037988983
91	0x3c31981b	0.010839487
92	0xbbf9c50c	-0.007622367
93	0xbd714e26	-0.05891242
94	0x3d8710a3	0.0659497
95	0xbd44ef2e	-0.048079662
96	0xbce2468a	-0.027621526
97	0xbd481f6c	-0.04885809
98	0x3db1c5a6	0.086802766
99	0x3e5eed19	0.21770133
100	0x3d3debe8	0.046367556
101	0x3da6859d	0.081309535
102	0xbdde4a11	-0.10853971
103	0xbe35b9b4	-0.17746621
104	0xbe287171	-0.16449524
105	0x3d0bfb59	0.03417525
106	0xbd8cdef0	-0.068784595
107	0x3d3d15be	0.046163313
108	0xbdd5e869	-0.10444719
109	0x3d2cb886	0.042168163
110	0x3e1acfdf	0.15118359
111	0xbc4dd57f	-0.0125631085
112	0x3d414be3	0.04719151
113	0x3e2f7357	0.17133842
114	0xbd3b2957	-0.04569372
115	0x3e3ba812	0.18325832
116	0x3e141c44	0.14463907
117	0xbb853489	-0.0040651006
118	0xbf88a755	-1.0676066
119	0x3d9ae1ed	0.07562623
120	0xbd3adb82	-0.045619495
121	0xbf51e370	-0.8198767
122	0xbe166bc5	-0.14689548
123	0xbd843cff	-0.064569466
124	0x3f187980	0.59560394
125	0xbe1b9434	-0.15193254
126	0x3d70bff8	0.058776826
127	0x3d859f8e	0.06524573
128	0xbceacca9	-0.028662043
129	0xbe4bc3b3	-0.19898872
130	0xbd76d108	-0.06025794
131	0x3d68b1e0	0.05681026
132	0x3d9dbb1d	0.07701705
133	0xbed144f4	-0.4087292
134	0xbd0a78c9	-0.033806596
135	0x3cc00afa	0.023442734
136	0xbc0b9044	-0.008518282
137	0xbc636472	-0.0138789285
138	0xbdc22ad5	-0.09480826
139	0x3d933e34	0.07189599
140	0x3c9c8ec7	0.01911105
141	0x3e4dde53	0.20104341
142	0xbd0b7d5c	-0.0340551
143	0x3cc4ca9b	0.024022391
144	0xbd8df0be	-0.069306836
145	0x3cbd0e3d	0.023078078
146	0xbce4987f	-0.027904747
147	0xbd2a0dc0	-0.04151702
148	0x3da31b36	0.079641744
149	0xbe11ec51	-0.14250304
150	0xbeaa69a1	-0.33283713
151	0xbe266df6	-0.16252884
152	0x3dec8066	0.115479276
153	0x3cafcdaf	0.021460382
154	0xbb453b65	-0.0030095216
155	0x3dcf7b74	0.10130969
156	0x3c8560f1	0.016281577
157	0xbe0a0090	-0.13476777
158	0x3da03217	0.07822054
159	0x3e908ce7	0.282325
160	0xbbafcb48	-0.005364809
161	0x3d57fa82	0.052729137
162	0xbeb92e83	-0.36168298
163	0x3d5a5262	0.053301223
164	0xbe292bfe	-0.16520688
165	0xbe7d2b3f	-0.24723528
166	0xbe115204	-0.14191443
167	0x3c52f2d2	0.012875276
168	0xbe02f72b	-0.127896
169	0x3d67a565	0.056554217
170	0xbe138ef2	-0.14409998
171	0xbc9a6959	-0.018849062
172	0xbecebc70	-0.4037814
173	0xbdfeae53	-0.124355935
174	0x3d0b7654	0.034048393
175	0x3d69e949	0.057107244
176	0xbda12b94	-0.0786964
177	0x3a41b83e	0.000738982
178	0x3e2ff5ef	0.1718366
179	0xbe25f4de	-0.1620669
180	0x3ea6286d	0.32452717
181	0x3d8e5705	0.069501914
182	0x3d7f9259	0.062395427
183	0xbdceef23	-0.101042055
184	0x3ddba026	0.10723905
185	0xbd1343cb	-0.035953324
186	0xbe8b39ed	-0.2719263
187	0xbd03845b	-0.032108646
188	0xbc62f228	-0.01385168
189	0xbd12c973	-0.03583665
190	0x3e16c19c	0.14722294
191	0xbefdd716	-0.4957816
192	0xbd04b065	-0.032394785
193	0xbd898363	-0.06714513
194	0xbc0943ba	-0.008377964
195	0x3db0f2e2	0.08640076
196	0x3d2266db	0.039648872
197	0x3ca63a33	0.020291423
198	0xbebdb6b1	-0.37053445
199	0xbd93cdb7	-0.07216971
200	0x3c838fb5	0.016059736
201	0x3d4b58bb	0.049645167
202	0xbcd4b6bd	-0.025966043
203	0xbea27a98	-0.31734157
204	0x3cab2d2f	0.020895569
205	0x3c6c676f	0.014428957
206	0x3cf2b733	0.029628372
207	0x3cbc2fd4	0.022972025
208	0x39636cf4	0.00021688995
209	0xbef25102	-0.4732743
210	0xbda5a563	-0.08088186
211	0xbcb5978c	-0.02216699
212	0xbda7309c	-0.081635684
213	0xbbfe8fa6	-0.007768589
214	0xbd388aa5	-0.045054097
215	0x3dcb0309	0.09912688
216	0x3d12a2d3	0.035799813
217	0xbc73c957	-0.014879546
218	0x3d5a5c8e	0.053310923
219	0xbf52837b	-0.82231873
220	0x3d9e45e4	0.07728174
221	0x3e2d7c84	0.1694203
222	0xbdabe047	-0.08392387
223	0xbd556555	-0.05209859
224	0x3d6ec172	0.058289953
225	0x3df7cb20	0.1209929
226	0xbd23d60b	-0.03999905
227	0x3e4378b5	0.19089015
228	0xbea724c5	-0.3264524
229	0xbe2fdef1	-0.17174889
230	0xbe0dd34d	-0.13850136
231	0x3d25e8c4	0.040505186
232	0xbe3cedf2	-0.18450144
233	0x3de55d9a	0.11199494
234	0xbda79372	-0.0818242
235	0x3e4ac218	0.19800603
236	0x3cc4f291	0.024041446
237	0x3d9e3e85	0.077267684
238	0x3d8b6dca	0.0680805
239	0xbd7a73df	-0.06114566
240	0x3e1702ac	0.14747113
241	0x3e7c89d7	0.24661957
242	0xbd45c85b	-0.048286777
243	0x3da108bd	0.07862995
244	0x3e63a66f	0.22231458
245	0xbd02c732	-0.03192825
246	0xbf80aecc	-1.0053344
247	0x3d896073	0.06707849
248	0x3d17d070	0.037064016
249	0xbda87681	-0.08225728
250	0xbe065b0c	-0.13120669
251	0xbd1e9c42	-0.038723238
252	0x3f2d7ca9	0.6776834
253	0xbe1796d0	-0.14803624
254	0xbdf8e155	-0.12152354
255	0x3d1b246d	0.037876535

fc3.bias f4 [10]
0	0xbf694a0e	-0.91128623
1	0xbf3b32a3	-0.7312414
2	0xbf761df9	-0.96139485
3	0xbf667e83	-0.9003679
4	0xbf2483f4	-0.64263844
5	0xbf1cab26	-0.6119865
6	0xbf3523c7	-0.70757717
7	0xbf60600b	-0.8764655
8	0xbf4ed475	-0.80792934
9	0xbf4385a4	-0.76375794
